…
 --save-interval 10 --frames 1500000

Namespace(algo='ppo', batch_size=256, clip_eps=0.2, discount=0.99, entropy_coef=0.01, env='MiniGrid-Customs-FourRoomsLava-11x11-v0', epochs=4, frames=1500000, frames_per_proc=None, gae_lambda=0.95, log_interval=1, lr=0.001, max_grad_norm=0.5, mem=True, model='Lstm-Customs-FourRoomsLava-11x11', optim_alpha=0.99, optim_eps=1e-08, procs=16, recurrence=6, save_interval=10, seed=1, text=False, value_loss_coef=0.5)

Device: cpu

Environments loaded

Training status loaded

Observations preprocessor loaded
Model loaded

ACModel(
  (image_conv): Sequential(
    (0): Conv2d(3, 16, kernel_size=(2, 2), stride=(1, 1))
    (1): ReLU()
    (2): MaxPool2d(kernel_size=(2, 2), stride=(2, 2), padding=0, dilation=1, ceil_mode=False)
    (3): Conv2d(16, 32, kernel_size=(2, 2), stride=(1, 1))
    (4): ReLU()
    (5): Conv2d(32, 64, kernel_size=(2, 2), stride=(1, 1))
    (6): ReLU()
  )
  (memory_rnn): LSTMCell(64, 64)
  (actor): Sequential(
    (0): Linear(in_features=64, out_features=64, bias=True)
    (1): Tanh()
    (2): Linear(in_features=64, out_features=7, bias=True)
  )
  (critic): Sequential(
    (0): Linear(in_features=64, out_features=64, bias=True)
    (1): Tanh()
    (2): Linear(in_features=64, out_features=1, bias=True)
  )
)

/root/gym-minigrid/torch-rl/scripts/train.py --algo ppo --env MiniGrid-Customs-FourRoomsLava-11x11-v0 --model Lstm-Customs-FourRoomsLava-11x11 --recurrence 4 --save-interval 10 --frames 1500000

Namespace(algo='ppo', batch_size=256, clip_eps=0.2, discount=0.99, entropy_coef=0.01, env='MiniGrid-Customs-FourRoomsLava-11x11-v0', epochs=4, frames=1500000, frames_per_proc=None, gae_lambda=0.95, log_interval=1, lr=0.001, max_grad_norm=0.5, mem=True, model='Lstm-Customs-FourRoomsLava-11x11', optim_alpha=0.99, optim_eps=1e-08, procs=16, recurrence=4, save_interval=10, seed=1, text=False, value_loss_coef=0.5)

Device: cpu

Environments loaded

Training status loaded

Observations preprocessor loaded
Model loaded

ACModel(
  (image_conv): Sequential(
    (0): Conv2d(3, 16, kernel_size=(2, 2), stride=(1, 1))
    (1): ReLU()
    (2): MaxPool2d(kernel_size=(2, 2), stride=(2, 2), padding=0, dilation=1, ceil_mode=False)
    (3): Conv2d(16, 32, kernel_size=(2, 2), stride=(1, 1))
    (4): ReLU()
    (5): Conv2d(32, 64, kernel_size=(2, 2), stride=(1, 1))
    (6): ReLU()
  )
  (memory_rnn): LSTMCell(64, 64)
  (actor): Sequential(
    (0): Linear(in_features=64, out_features=64, bias=True)
    (1): Tanh()
    (2): Linear(in_features=64, out_features=7, bias=True)
  )
  (critic): Sequential(
    (0): Linear(in_features=64, out_features=64, bias=True)
    (1): Tanh()
    (2): Linear(in_features=64, out_features=1, bias=True)
  )
)

Optimizer loaded

U 1 | F 002048 | FPS 0528 | D 3 | rR:0.00 0.00 0.00 0.00 | F:5.2 20.3 0.0 84.0 | H 1.943 | V 0.069 | pL 0.014 | vL 0.000 |dL 0.014
U 2 | F 004096 | FPS 0529 | D 7 | rR:0.05 0.19 0.00 0.78 | F:34.7 78.6 0.0 241.0 | H 1.935 | V 0.076 | pL 0.007 | vL 0.002 |dL 0.011
U 3 | F 006144 | FPS 0408 | D 12 | rR:0.05 0.19 0.00 0.78 | F:85.8 126.1 0.0 382.0 | H 1.940 | V 0.066 | pL 0.014 | vL 0.000 |dL 0.005
…
