…
val 10 --frames 20000000 --lr 0.0002 --discount 0.95

Namespace(algo='ppo', batch_size=256, clip_eps=0.2, discount=0.95, entropy_coef=0.01, env='MiniGrid-Customs-SimpleCorridor-v0', epochs=4, frames=20000000, frames_per_proc=None, gae_lambda=0.95, log_interval=1, lr=0.0002, max_grad_norm=0.5, mem=True, model='SimpleCorridor_20M', optim_alpha=0.99, optim_eps=1e-08, procs=16, recurrence=10, save_interval=10, seed=1, text=False, value_loss_coef=0.5)

Device: cpu

Environments loaded

Training status loaded

Observations preprocessor loaded
Model loaded

ACModel(
  (image_conv): Sequential(
    (0): Conv2d(3, 16, kernel_size=(2, 2), stride=(1, 1))
    (1): ReLU()
    (2): MaxPool2d(kernel_size=(2, 2), stride=(2, 2), padding=0, dilation=1, ceil_mode=False)
    (3): Conv2d(16, 32, kernel_size=(2, 2), stride=(1, 1))
    (4): ReLU()
    (5): Conv2d(32, 64, kernel_size=(2, 2), stride=(1, 1))
    (6): ReLU()
  )
  (memory_rnn): LSTMCell(64, 64)
  (actor): Sequential(
    (0): Linear(in_features=64, out_features=64, bias=True)
    (1): Tanh()
    (2): Linear(in_features=64, out_features=9, bias=True)
  )
  (critic): Sequential(
    (0): Linear(in_features=64, out_features=64, bias=True)
    (1): Tanh()
    (2): Linear(in_features=64, out_features=1, bias=True)
  )
)

/root/gym-minigrid/torch-rl/scripts/train.py --algo ppo --env MiniGrid-Customs-SimpleCorridor-v0 --model SimpleCorridor_20M --recurrence 12 --save-interval 10 --frames 20000000 --lr 0.0002 --discount 0.95

Namespace(algo='ppo', batch_size=256, clip_eps=0.2, discount=0.95, entropy_coef=0.01, env='MiniGrid-Customs-SimpleCorridor-v0', epochs=4, frames=20000000, frames_per_proc=None, gae_lambda=0.95, log_interval=1, lr=0.0002, max_grad_norm=0.5, mem=True, model='SimpleCorridor_20M', optim_alpha=0.99, optim_eps=1e-08, procs=16, recurrence=12, save_interval=10, seed=1, text=False, value_loss_coef=0.5)

Device: cpu

Environments loaded

Training status loaded

Observations preprocessor loaded
Model loaded

ACModel(
  (image_conv): Sequential(
    (0): Conv2d(3, 16, kernel_size=(2, 2), stride=(1, 1))
    (1): ReLU()
    (2): MaxPool2d(kernel_size=(2, 2), stride=(2, 2), padding=0, dilation=1, ceil_mode=False)
    (3): Conv2d(16, 32, kernel_size=(2, 2), stride=(1, 1))
    (4): ReLU()
    (5): Conv2d(32, 64, kernel_size=(2, 2), stride=(1, 1))
    (6): ReLU()
  )
  (memory_rnn): LSTMCell(64, 64)
  (actor): Sequential(
    (0): Linear(in_features=64, out_features=64, bias=True)
    (1): Tanh()
    (2): Linear(in_features=64, out_features=9, bias=True)
  )
  (critic): Sequential(
    (0): Linear(in_features=64, out_features=64, bias=True)
    (1): Tanh()
    (2): Linear(in_features=64, out_features=1, bias=True)
  )
)

/root/gym-minigrid/torch-rl/scripts/train.py --algo ppo --env MiniGrid-Customs-SimpleCorridor-v0 --model SimpleCorridor_20M --recurrence 16 --save-interval 10 --frames 20000000 --lr 0.0002 --discount 0.95

Namespace(algo='ppo', batch_size=256, clip_eps=0.2, discount=0.95, entropy_coef=0.01, env='MiniGrid-Customs-SimpleCorridor-v0', epochs=4, frames=20000000, frames_per_proc=None, gae_lambda=0.95, log_interval=1, lr=0.0002, max_grad_norm=0.5, mem=True, model='SimpleCorridor_20M', optim_alpha=0.99, optim_eps=1e-08, procs=16, recurrence=16, save_interval=10, seed=1, text=False, value_loss_coef=0.5)

Device: cpu

Environments loaded

Training status loaded

Observations preprocessor loaded
Model loaded

ACModel(
  (image_conv): Sequential(
    (0): Conv2d(3, 16, kernel_size=(2, 2), stride=(1, 1))
    (1): ReLU()
    (2): MaxPool2d(kernel_size=(2, 2), stride=(2, 2), padding=0, dilation=1, ceil_mode=False)
    (3): Conv2d(16, 32, kernel_size=(2, 2), stride=(1, 1))
    (4): ReLU()
    (5): Conv2d(32, 64, kernel_size=(2, 2), stride=(1, 1))
    (6): ReLU()
  )
  (memory_rnn): LSTMCell(64, 64)
  (actor): Sequential(
    (0): Linear(in_features=64, out_features=64, bias=True)
    (1): Tanh()
    (2): Linear(in_features=64, out_features=9, bias=True)
  )
  (critic): Sequential(
    (0): Linear(in_features=64, out_features=64, bias=True)
    (1): Tanh()
    (2): Linear(in_features=64, out_features=1, bias=True)
  )
)

Optimizer loaded

U 1 | F 002048 | FPS 0341 | D 5 | rR:0.00 0.00 0.00 0.00 | F:0.0 0.0 0 0 | H 2.195 | V 0.017 | pL 0.016 | vL 0.000 |dL 0.009
U 2 | F 004096 | FPS 0355 | D 11 | rR:0.00 0.00 0.00 0.00 | F:200.0 0.0 200.0 200.0 | H 2.196 | V 0.007 | pL 0.009 | vL 0.000 |dL 0.004
U 3 | F 006144 | FPS 0316 | D 18 | rR:0.00 0.00 0.00 0.00 | F:200.0 0.0 200.0 200.0 | H 2.197 | V 0.005 | pL 0.005 | vL 0.000 |dL 0.001
…
