…
-interval 10 --frames 1000000

Namespace(algo='ppo', batch_size=256, clip_eps=0.2, discount=0.99, entropy_coef=0.01, env='MiniGrid-Customs-FourRoomsLava-13x13-v0', epochs=4, frames=1000000, frames_per_proc=None, gae_lambda=0.95, log_interval=1, lr=0.001, max_grad_norm=0.5, mem=True, model='MiniGrid-Customs-FourRoomsLava-13x13-v0', optim_alpha=0.99, optim_eps=1e-08, procs=16, recurrence=4, save_interval=10, seed=1, text=False, value_loss_coef=0.5)

Device: cpu

Environments loaded

Training status loaded

Observations preprocessor loaded
Model loaded

ACModel(
  (image_conv): Sequential(
    (0): Conv2d(3, 16, kernel_size=(2, 2), stride=(1, 1))
    (1): ReLU()
    (2): MaxPool2d(kernel_size=(2, 2), stride=(2, 2), padding=0, dilation=1, ceil_mode=False)
    (3): Conv2d(16, 32, kernel_size=(2, 2), stride=(1, 1))
    (4): ReLU()
    (5): Conv2d(32, 64, kernel_size=(2, 2), stride=(1, 1))
    (6): ReLU()
  )
  (memory_rnn): LSTMCell(64, 64)
  (actor): Sequential(
    (0): Linear(in_features=64, out_features=64, bias=True)
    (1): Tanh()
    (2): Linear(in_features=64, out_features=7, bias=True)
  )
  (critic): Sequential(
    (0): Linear(in_features=64, out_features=64, bias=True)
    (1): Tanh()
    (2): Linear(in_features=64, out_features=1, bias=True)
  )
)

Optimizer loaded

/root/gym-minigrid/torch-rl/scripts/train.py --algo ppo --env MiniGrid-Customs-FourRoomsLava-13x13-v0 --model MiniGrid-Customs-FourRoomsLava-13x13-v0 --recurrence 4 --save-interval 10 --frames 1000000

Namespace(algo='ppo', batch_size=256, clip_eps=0.2, discount=0.99, entropy_coef=0.01, env='MiniGrid-Customs-FourRoomsLava-13x13-v0', epochs=4, frames=1000000, frames_per_proc=None, gae_lambda=0.95, log_interval=1, lr=0.001, max_grad_norm=0.5, mem=True, model='MiniGrid-Customs-FourRoomsLava-13x13-v0', optim_alpha=0.99, optim_eps=1e-08, procs=16, recurrence=4, save_interval=10, seed=1, text=False, value_loss_coef=0.5)

Device: cpu

Environments loaded

Training status loaded

Observations preprocessor loaded
Model loaded

ACModel(
  (image_conv): Sequential(
    (0): Conv2d(3, 16, kernel_size=(2, 2), stride=(1, 1))
    (1): ReLU()
    (2): MaxPool2d(kernel_size=(2, 2), stride=(2, 2), padding=0, dilation=1, ceil_mode=False)
    (3): Conv2d(16, 32, kernel_size=(2, 2), stride=(1, 1))
    (4): ReLU()
    (5): Conv2d(32, 64, kernel_size=(2, 2), stride=(1, 1))
    (6): ReLU()
  )
  (memory_rnn): LSTMCell(64, 64)
  (actor): Sequential(
    (0): Linear(in_features=64, out_features=64, bias=True)
    (1): Tanh()
    (2): Linear(in_features=64, out_features=7, bias=True)
  )
  (critic): Sequential(
    (0): Linear(in_features=64, out_features=64, bias=True)
    (1): Tanh()
    (2): Linear(in_features=64, out_features=1, bias=True)
  )
)

Optimizer loaded

U 1 | F 002048 | FPS 0426 | D 4 | rR: 0.06 0.24 0.00 0.98 | F: 24.7 35.6 0.0 123.0 | H 1.939 | V 0.079 | pL 0.008 | vL 0.003 | dL 0.025
U 2 | F 004096 | FPS 0278 | D 12 | rR: 0.16 0.33 0.00 0.98 | F: 124.1 91.6 10.0 248.0 | H 1.943 | V 0.060 | pL -0.000 | vL 0.004 | dL 0.012
U 3 | F 006144 | FPS 0414 | D 17 | rR: 0.21 0.36 0.00 1.00 | F: 172.2 108.5 3.0 317.0 | H 1.940 | V 0.052 | pL 0.005 | vL 0.003 | dL 0.012
…
